saved_models/gcn_node2vec.pth (torch, 21432 bytes, 4 tensors)

conv1.bias f4 [64]
0.14149794 0.1568227 0.07252893 0.15936288 0.1388946 0.07637898 0.055262867 0.04936049
0.044047926 -0.0046493136 0.066314206 -0.023136077 0.14971879 0.09675876 0.081701554 0.094522305
0.15683691 0.09468681 0.08768902 0.057039857 0.13004251 0.097311534 0.08410021 0.18039142
0.08286733 0.02548173 0.06776065 0.13939881 0.13372439 0.059099037 0.05538419 0.11797399
0.1868557 0.13158196 0.060622912 0.13853222 0.028989414 0.062056098 0.11596618 0.14664124
0.06770877 0.18770823 0.10691738 0.12163072 0.17271735 0.035983283 0.118541054 0.06934021
0.16833767 0.09498558 0.09422732 0.17131531 0.06851245 -0.019388268 0.0026412737 0.06744515
0.111748114 0.13941571 0.033922948 0.1068993 0.09683752 0.11150763 0.066720195 0.104722634
00000000: d6e4 103e 2196 203e 0c8a 943d 0630 233e
00000010: 633a 0e3e 956c 9c3d 515b 623d 3a2e 4a3d
00000020: 996b 343d 4559 98bb becf 873d df87 bdbc
00000030: e24f 193e 7529 c63d 2553 a73d e994 c13d
00000040: db99 203e 29eb c13d 4d96 b33d a0a2 693d
00000050: dd29 053e 454b c73d bb3c ac3d 87b8 383e
00000060: 59b6 a93d 10bf d03c 18c6 8a3d 90be 0e3e
00000070: 0cef 083e d511 723d 88da 623d 599c f13d
00000080: 1a57 3f3e 6cbd 063e bb4f 783d 64db 0d3e
00000090: 357b ed3c 892e 7e3d ad7f ed3d 1f29 163e
000000a0: e5aa 8a3d 9636 403e 80f7 da3d 8719 f93d
000000b0: d1dc 303e 3563 133d a7c5 f23d 3d02 8e3d
000000c0: b660 2c3e cd87 c23d 41fa c03d 486d 2f3e
000000d0: 4150 8c3d 25d4 9ebc 3819 2d3b af20 8a3d
000000e0: 32dc e43d fec2 0e3e caf2 0a3d 05ee da3d
000000f0: c052 c63d 1d5e e43d 99a4 883d d278 d63d

conv1.lin.weight f4 [64, 64]
0.07626646 0.16920818 -0.09385734 0.26014414 -0.21819279 0.19336952 -0.052412644 -0.15951358
0.11851114 0.08940686 -0.15200487 -0.016772965 0.029060423 -0.12817603 -0.11754031 -0.19759162
0.12868379 0.023625411 0.2947044 -0.01035204 0.30659193 0.14960138 -0.05419758 -0.4930765
0.20242183 0.115033835 -0.049873617 0.20792615 0.15269013 -0.19832511 0.103774086 0.238313
-0.05514764 -0.2718569 0.2960599 -0.23492315 0.3006744 -0.0354031 -0.12583335 -0.02505585
0.08651781 0.12841424 0.06181894 0.4318747 -0.09264079 -0.26282617 0.068916075 -0.08438265
0.0568707 0.03154985 0.038632493 0.003747825 -0.33532092 -0.08225821 0.18762545 0.19365357
-0.21512477 -0.0074007693 0.13412187 0.11352435 0.11547503 0.39677545 0.38553992 -0.0931607
0.090710886 0.37689164 0.07102172 0.2540887 0.1990712 -0.33086613 -0.17150322 -0.28783882
-0.10815276 -0.016510272 0.028058315 -0.05585732 -0.009802555 -0.18783902 -0.18547302 -0.08029793
0.045317296 0.24795401 0.27940556 -0.22747129 0.14421277 0.19656622 0.19473143 -0.29682222
-0.22898848 0.2643186 -0.19395404 0.011265575 0.29693967 -0.20329237 0.039053574 0.114131756
-0.3188185 -0.15534088 0.115505375 0.109651364 0.31027445 -0.10546179 0.087884344 0.040260013
0.04436163 -0.18197255 0.197312 -0.039675836 0.26074308 -0.03173327 -0.31040514 -0.19449504
0.27513883 0.07605121 -0.11509474 0.2059737 -0.1659137 -0.21537647 0.052517302 0.4529392
-0.17703706 -0.030720718 0.07200225 -0.1601088 -0.021329917 0.034914244 -0.10615683 -0.14276768
-0.2642836 0.23800467 -0.41229978 -0.0039039887 -0.18853453 -0.16866106 0.019691838 -0.01768884
-0.17679214 0.059451923 0.44064358 -0.091373995 -0.03417701 -0.034426242 0.29220688 0.04074263
-0.28894722 0.0019341196 -0.029121201 -0.19373626 -0.15915038 0.22558875 -0.097926676 0.06644838
0.12635925 -0.052126188 0.10901503 -0.23668788 -0.13541552 0.25251848 0.059665613 -0.023089329
0.04820206 0.15072562 -0.018368907 0.089036845 -0.07162624 0.15755403 -0.26941493 0.04759477
-0.08330524 -0.24033792 0.052016336 0.022785408 0.08265991 -0.13735797 0.05981713 -0.2797982
0.09888129 0.15435417 -0.18092898 -0.25929207 0.04440588 0.1702789 0.108310156 -0.0013278641
0.1282098 -0.23185913 0.09164721 0.27742437 0.05435951 0.11486424 -0.23142244 0.017939715
0.17759924 -0.4561441 0.05472962 0.07278839 -0.17326228 0.05632144 -0.14983766 0.052243713
0.13505386 -0.0911226 -0.5100891 -0.22955842 -0.11114414 -0.2578748 0.034006525 -0.03537733
-0.058098666 -0.012286095 0.06625082 -0.084537745 -0.3010856 -0.15485479 -0.011936232 0.28095123
-0.20208138 0.11531251 0.18237065 -0.038111635 -0.266316 0.07718653 -0.39251575 -0.23477498
0.09265886 -0.08362169 -0.040446438 -0.22341658 -0.13823666 0.028058922 -0.15652901 -0.21947879
-0.17966625 0.028576609 -0.26468286 0.09174417 0.14891762 -0.26079327 -0.32161275 -0.2221465
0.19624025 -0.09856879 -0.09464888 0.03820154 0.047185518 0.40381536 -0.102319345 -0.39729676
0.24033956 -0.29909107 -0.09388655 0.5095466 -0.14402221 0.17125778 0.29724425 0.21789855
00000000: 9731 9c3d e944 2d3e 4738 c0bd 9d31 853e
00000010: ee6d 5fbe a902 463e a4ae 56bd 8757 23be
00000020: f8b5 f23d f21a b73d 2aa7 1bbe 7567 89bc
00000030: 2010 ee3c 9440 03be f9b8 f0bd 7555 4abe
00000040: afc5 033e 148a c13c 7fe3 963e 9a9b 29bc
00000050: 9ef9 9c3e 1b31 193e 48fe 5dbd 8674 fcbe
00000060: ab47 4f3e dc96 eb3d 4748 4cbd 98ea 543e
00000070: cd5a 1c3e bd15 4bbe 8287 d43d 5308 743e
00000080: 7ee2 61bd d430 8bbe 2a95 973e b28f 70be
00000090: fff1 993e d702 11bd 75da 00be ed41 cdbc
000000a0: 4030 b13d 067f 033e db35 7d3d ae1e dd3e
000000b0: 74ba bdbd 2791 86be df23 8d3d d0d0 acbd
000000c0: 40f1 683d 6a3a 013d 1b3d 1e3d 129e 753b
000000d0: 2faf abbe fe76 a8bd e320 403e 1f4d 463e
000000e0: ab49 5cbe 2782 f2bb 3e57 093e 747f e83d
000000f0: 2c7e ec3d 2726 cb3e 7d65 c53e 09cb bebd
00000100: a1c6 b93d f1f7 c03e d673 913d ea17 823e
00000110: 52d9 4b3e 4967 a9be 8a9e 2fbe 9c5f 93be
00000120: 327f ddbd 8d40 87bc 8dda e53c a5ca 64bd
00000130: e59a 20bc df58 40be a4ec 3dbe 3e73 a4bd
00000140: a19e 393d a8e7 7d3e 3f0e 8f3e 3cee 68be
00000150: 83ac 133e a848 493e ad67 473e 15f9 97be
00000160: f57b 6abe c454 873e e39b 46be 3f93 383c
00000170: 7a08 983e e02b 50be a4f6 1f3d e9bd e93d
00000180: 2e3c a3be ae11 1fbe 158e ec3d e590 e03d
00000190: 4bdc 9e3e 5afc d7bd b5fc b33d afe7 243d
000001a0: 8ab4 353d 0357 3abe 280c 4a3e 2183 22bd
000001b0: 1e80 853e bffa 01bd 6ced 9ebe b529 47be
000001c0: ffde 8c3e bdc0 9b3d cbb6 ebbd c5ea 523e
000001d0: 48e5 29be a68b 5cbe 621c 573d a6e7 e73e
000001e0: 3449 35be 04aa fbbc ea75 933d 90f3 23be
000001f0: 14bc aebc 3d02 0f3d c168 d9bd b131 12be
00000200: 2e50 87be 7fb7 733e f518 d3be 10da 7fbb
00000210: 320f 41be 7cb5 2cbe c750 a13c 30e8 90bc
00000220: 0009 35be dc83 733d 099c e13e 4a22 bbbd
00000230: 31fd 0bbd 8802 0dbd 249c 953e bee1 263d
00000240: e4f0 93be 4982 fd3a 968f eebc cc62 46be
00000250: 51f8 22be bd00 673e c88d c8bd 1716 883d
00000260: 5264 013e 4582 55bd 4643 df3d 4f5e 72be
00000270: 5eaa 0abe 1a4a 813e ee63 743d d525 bdbc
00000280: 866f 453d d157 1a3e 647a 96bc f358 b63d
00000290: c7b0 92bd d855 213e c1f0 89be bcf2 423d
000002a0: f09b aabd 251b 76be 150f 553d 77a8 ba3c
000002b0: 9949 a93d 91a7 0cbe cf02 753d b641 8fbe
000002c0: 4682 ca3d 050f 1e3e 7245 39be eec1 84be
000002d0: f1e2 353d 985d 2e3e b7d1 dd3d ba0b aeba
000002e0: 6e49 033e 7b6c 6dbe 88b1 bb3d 910a 8e3e
000002f0: 14a8 5e3d f13d eb3d 01fa 6cbe 4ff6 923c
00000300: 93dc 353e b88b e9be 2b2c 603d 1412 953d
00000310: ab6b 31be 4fb1 663d 0b6f 19be 81fd 553d
00000320: 8f4b 0a3e 7c9e babd 3395 02bf 5d11 6bbe
00000330: 8a9f e3bd 2a08 84be 6d4a 0b3d d2e7 10bd
00000340: def8 6dbd 9e4b 49bc 83ae 873d 2022 adbd
00000350: e427 9abe 4192 1ebe 3090 43bc d7d8 8f3e
00000360: 6cee 4ebe f728 ec3d 5fbf 3a3e f21a 1cbd
00000370: 925a 88be f913 9e3d d3f7 c8be da68 70be
00000380: eec3 bd3d d941 abbd 2aab 25bd 51c7 64be
00000390: e98d 0dbe d3db e53c 2449 20be 0cbf 60be
000003a0: 6efa 37be 7e19 ea3c 8384 87be 5ee4 bb3d
000003b0: dc7d 183e b286 85be 6daa a4be 5f7a 63be
000003c0: 34f3 483e 6fde c9bd 46d7 c1bd 3879 1c3d
000003d0: 9a45 413d e3c0 ce3e ce8c d1bd 7b6a cbbe
000003e0: 931b 763e 7722 99be 9747 c0bd a571 023f
000003f0: 8f7a 13be 335e 2f3e 6630 983e cc20 5f3e

conv2.bias f4 [10]
-0.0118097365 -0.03777685 0.021781268 0.08189087 -0.044787712 -0.0697761 0.05621534 0.090251185
-0.049539767 0.017389541
00000000: a07d 41bc e6bb 1abd a16e b23c 67b6 a73d
00000010: 5273 37bd c6e6 8ebd 0e42 663d 9dd5 b83d
00000020: 36ea 4abd 8374 8e3c

conv2.lin.weight f4 [10, 64]
0.08810961 -0.4462261 0.19891508 0.0708357 -0.38932964 0.020202797 -0.14528173 0.24325348
-0.32553703 -0.18309587 -0.27821866 -0.06438316 -0.033474237 0.119875446 0.19413804 -0.5646485
0.5643389 -0.18785626 0.022701496 -0.16365631 -0.29965264 -0.46309814 -0.11983907 0.5409726
-0.47606993 0.4018741 -0.42653883 -0.6121159 -0.44855124 0.64177126 -0.010702955 0.11283929
-0.0865333 0.38788062 0.00033531792 -0.49466756 0.1851084 -0.3418122 0.3105748 0.5186891
0.26635292 -0.07879547 0.45346344 0.13952363 -0.07894742 0.18432045 0.11352344 0.362288
-0.41459677 0.2857035 0.013279854 -0.4902269 0.33199507 -0.064183705 0.038363572 -0.20203115
-0.1324482 0.35168257 0.4058652 -0.34112683 -0.41043442 -0.17765543 0.3018319 -0.24896775
0.21074481 0.52892935 -0.5976674 0.31651628 0.4681253 0.21407996 -0.42405564 0.5543844
-0.4419205 -0.0033991265 -0.3850849 0.004359806 -0.50113183 -0.3342675 0.4534568 0.66378796
-0.43913114 0.22448938 0.01826948 -0.31491223 -0.18868338 -0.54143566 0.16846289 -0.5719648
0.60446304 -0.2080996 -0.4338817 0.10254076 0.16207056 -0.246855 0.051869184 -0.19083843
-0.40659752 0.2856742 -0.14894462 0.19953148 -0.0303967 0.13439347 -0.40298033 -0.06924496
0.028178444 0.086634904 0.6730225 -0.07974739 -0.50471884 -0.19276342 0.53706175 0.43783507
0.12761019 0.17908396 0.27711114 -0.53670454 -0.33198866 0.5173739 -0.3120994 0.11677621
0.54980487 -0.116180055 -0.04832989 -0.41843814 0.52517414 -0.1114786 -0.0372786 -0.065991096
0.0069991834 0.6262737 -0.14473264 -0.66725427 0.42537287 0.08553584 -0.3319436 0.117455855
0.15705246 -0.1332017 0.045286976 -0.22617173 0.19516627 0.35378116 -0.43127218 -0.6748302
-0.40770763 -0.3906893 -0.30644408 -0.37854755 0.39627466 0.46205428 -0.20823787 -0.28639904
0.19415167 -0.2557509 -0.37191147 0.46075878 -0.36599258 0.11649823 -0.026251754 -0.5642037
0.55803657 -0.08404817 0.13527966 -0.48295975 -0.0999702 0.067855276 0.26587385 0.5176408
-0.4324305 -0.5127828 0.20544352 -0.2677116 0.4005604 0.021078818 0.55915624 0.028517643
-0.40893567 -0.43167037 0.34465992 0.3168938 0.12282331 0.10394227 -0.07795567 -0.04516632
-0.63741857 -0.26701164 0.03977757 -0.021269305 0.47588158 -0.15601778 -0.060347665 0.30018523
0.5961447 0.18516576 0.36970106 0.20203243 -0.53246963 0.5734575 -0.49025998 0.431798
-0.18022525 -0.4484348 -0.51475894 -0.32352647 0.3869904 -0.6399722 -0.44867992 -0.039983064
0.095883004 -0.11456693 0.47208488 0.43212122 -0.3539406 -0.14309706 -0.26143113 -0.25607336
-0.4676163 0.33121294 -0.32645202 0.55086863 0.47356972 -0.31063807 0.44143575 -0.23165464
0.024557287 -0.25032353 -0.10621712 0.43920115 0.057896476 0.27459225 -0.21344912 -0.115205534
-0.280949 0.6209855 -0.5930116 -0.6326222 0.5210483 0.40274343 -0.36728692 -0.020198906
-0.5444867 -0.6146537 -0.4025331 0.016035046 0.33858132 -0.25778896 -0.05709832 0.23533314
-0.22930224 0.42769432 -0.46651566 0.6936794 -0.22514316 0.41768646 0.07113661 -0.39342043
00000000: d072 b43d bf77 e4be 65b0 4b3e 4f12 913d
00000010: 3756 c7be 5680 a53c bcc4 14be 7117 793e
00000020: caac a6be 7c7d 3bbe ad72 8ebe 51db 83bd
00000030: 481c 09bd 4281 f53d 1fcc 463e ce8c 10bf
00000040: 8478 103f 645d 40be 7df8 b93c 8595 27be
00000050: 126c 99be 331b edbe 306e f5bd 2e7d 0a3f
00000060: 70bf f3be 71c2 cd3e 4c63 dabe a1b3 1cbf
00000070: 82a8 e5be 1f4b 243f 725b 2fbc 4918 e73d
00000080: 5f38 b1bd 4a98 c63e 9ccd af39 1145 fdbe
00000090: 0e8d 3d3e 0202 afbe a903 9f3e cfc8 043f
000000a0: 695f 883e 855f a1bd 5c2c e83e 48df 0e3e
000000b0: 2faf a1bd 80be 3c3e fa7e e83d d07d b93e
000000c0: 0746 d4be bb47 923e bf93 593c 05ff fabe
000000d0: 42fb a93e bf72 83bd 1f23 1d3d 41e1 4ebe
000000e0: 80a0 07be bd0f b43e 90cd cf3e 2da8 aebe
000000f0: 7624 d2be 4eeb 35be b689 9a3e 67f1 7ebe
00000100: 7dcd 573e ea67 073f bb00 19bf 6c0e a23e
00000110: 1fae ef3e c737 5b3e d21d d9be 23ec 0d3f
00000120: 6743 e2be e1c3 5ebb d929 c5be b4dc 8e3b
00000130: 2d4a 00bf 1c25 abbe 7d2b e83e 02ee 293f
00000140: ccd5 e0be 8be0 653e e0a9 953c 2d3c a1be
00000150: 3736 41be 879b 0abf 8981 2c3e 496c 12bf
00000160: 17be 1a3f 1018 55be be25 debe e400 d23d
00000170: d3f5 253e 8fc7 7cbe c874 543d 266b 43be
00000180: 8d2d d0be e443 923e f084 18be fb51 4c3e
00000190: 8002 f9bc 719e 093e 7053 cebe 4dd0 8dbd
000001a0: 7bd6 e63c a46d b13d 344b 2c3f 9952 a3bd
000001b0: 4135 01bf c663 45be e17c 093f eb2b e03e
000001c0: 3fac 023e c961 373e 83e1 8d3e 7865 09bf
000001d0: 6bfa a9be 9e72 043f 7ecb 9fbe 5e28 ef3d
000001e0: 03c0 0c3f cfef edbd 90f5 45bd 863d d6be
000001f0: d071 063f e44e e4bd 72b1 18bd 5726 87bd
00000200: 6859 e53b 7953 203f cb34 14be 2dd1 2abf
00000210: 79ca d93e 6a2d af3d 83f4 a9be b28c f03d
00000220: 5cd2 203e 0766 08be d67e 393d 9099 67be
00000230: abd9 473e ce22 b53e b5cf dcbe acc1 2cbf
00000240: 0ebf d0be 6e08 c8be 3de6 9cbe fcd0 c1be
00000250: 83e4 ca3e 6192 ec3e 4f3c 55be e5a2 92be
00000260: b2cf 463e c8f1 82be 2e6b bebe 93e8 eb3e
00000270: 6163 bbbe a096 ee3d eb0d d7bc a76f 10bf
00000280: 7cdb 0e3f 7221 acbd c086 0a3e 8046 f7be
00000290: 2dbd ccbd b5f7 8a3d 9e20 883e 1c84 043f
000002a0: 8867 ddbe bc45 03bf c95f 523e 7f11 89be
000002b0: 4116 cd3e 7cad ac3c dd24 0f3f d59d e93c
000002c0: 0460 d1be e603 ddbe 4477 b03e e73f a23e
000002d0: ca8a fb3d afdf d43d 39a7 9fbd 5200 39bd
000002e0: dd2d 23bf c0b5 88be ceed 223d f73c aebc
000002f0: c0a6 f33e 20c3 1fbe 1d2f 77bd e1b1 993e
00000300: f09c 183f 189c 3d3e 7549 bd3e 97e1 4e3e
00000310: ee4f 08bf 1cce 123f 5b03 fbbe a114 dd3e
00000320: f88c 38be 3f99 e5be 3ec7 03bf 43a5 a5be
00000330: 9b23 c63e 38d5 23bf 60b9 e5be 48c5 23bd
00000340: 4f5e c43d 11a2 eabd 1cb5 f13e fe3e dd3e
00000350: b437 b5be 0988 12be 4dda 85be 0c1c 83be
00000360: 676b efbe be94 a93e b824 a7be ba05 0d3f
00000370: bb77 f23e f40b 9fbe de03 e23e e036 6dbe
00000380: 5d2c c93c 682a 80be 5d88 d9bd f9de e03e
00000390: db24 6d3d 5b97 8c3e 6892 5abe e1f0 ebbd
000003a0: 8cd8 8fbe e8f8 1e3f 9ccf 17bf 87f3 21bf
000003b0: 6c63 053f 6334 ce3e 080d bcbe 2d78 a5bc
000003c0: 7b63 0bbf f259 1dbf d218 cebe ee5b 833c
000003d0: 885a ad3e eafc 83be eedf 69bd 2cfb 703e
000003e0: 35ce 6abe c0fa da3e 24db eebe f994 313f
000003f0: ee8b 66be 00db d53e 12b0 913d 676e c9be
